…
============================] - 4s 2ms/step - loss: 1699.8079 - val_loss: 1426.6115\nEpoch 107/1000\n2424/2424 [==============================] - 4s 2ms/step - loss: 1737.1375 - val_loss: 1446.8939\nEpoch 108/1000\n2424/2424 [==============================] - 4s 2ms/step - loss: 1710.6053 - val_loss: 1421.2778\n\n\nmodel.summary()\n\n\nModel: &quot;sequential&quot;\n_________________________________________________________________\n Layer (type)                Output Shape              Param #   \n=================================================================\n batch_normalization (BatchN  (None, 14)               56        \n ormalization)                                                   \n\n dropout (Dropout)           (None, 14)                0         \n\n dense (Dense)               (None, 30)                450       \n\n batch_normalization_1 (Batc  (None, 30)               120       \n hNormalization)                                                 \n\n dropout_1 (Dropout)         (None, 30)                0         \n\n dense_1 (Dense)             (None, 30)                930       \n\n batch_normalization_2 (Batc  (None, 30)               120       \n hNormalization)                                                 \n\n dropout_2 (Dropout)         (None, 30)                0         \n\n dense_2 (Dense)             (None, 20)                620       \n\n batch_normalization_3 (Batc  (None, 20)               80        \n hNormalization)                                                 \n\n dropout_3 (Dropout)         (None, 20)                0         \n\n dense_3 (Dense)             (None, 10)                210       \n\n batch_normalization_4 (Batc  (None, 10)               40        \n hNormalization)                                                 \n\n dropout_4 (Dropout)         (None, 10)                0         \n\n dense_4 (Dense)             (None, 1)                 11        \n\n=================================================================\nTotal params: 2,637\nTrainable params: 2,429\nNon-trainable params: 208\n_________________________________________________________________\n\n\nThe learning curve is shown below:\n\nplt.plot(history.history[&#39;loss&#39;],label = &quot;loss&quot;)\nplt.plot(history.history[&#39;val_loss&#39;], label = &quot;val_loss&qu
…
=================] - 5s 2ms/step - loss: 1290.2340 - val_loss: 1363.4564\n...\nEpoch 244/1000\n2424/2424 [==============================] - 5s 2ms/step - loss: 1013.4796 - val_loss: 1174.7893\nEpoch 245/1000\n2424/2424 [==============================] - 5s 2ms/step - loss: 1002.9050 - val_loss: 1177.7996\n\n\nmodel_conv.summary()\n\n\nModel: &quot;sequential_1&quot;\n_________________________________________________________________\n Layer (type)                Output Shape              Param #   \n=================================================================\n conv1d (Conv1D)             (None, 14, 32)            96        \n\n conv1d_1 (Conv1D)           (None, 14, 32)            3104      \n\n conv1d_2 (Conv1D)           (None, 12, 32)            3104      \n\n flatten (Flatten)           (None, 384)               0         \n\n dense_8 (Dense)             (None, 128)               49280     \n\n dense_9 (Dense)             (None, 64)                8256      \n\n dense_10 (Dense)            (None, 32)                2080      \n\n dense_11 (Dense)            (None, 1)                 33        \n\n=================================================================\nTotal params: 65,953\nTrainable params: 65,953\nNon-trainable params: 0\n_________________________________________________________________\n\n\nThe learning curve is shown below.\n\nplt.plot(history_cov.history[&#39;loss&#39;],label = &quot;loss&quot;)\nplt.plot(history_cov.history[&#39;val_loss&#39;], label = &quot;val
…
